…
Intel XPU Available? True
CUDA Available? False

--- Data Statistics (First Batch) ---
Images tensor shape: torch.Size([128, 1, 28, 28])
Labels tensor shape: torch.Size([128])
 - min: -0.4242
 - max: 2.8215
 - mean: 0.0058
 - std: 1.0068
 - var: 1.0136
-------------------------------------

Saved a sample of the training data to analytics\pre_training\data_sample_v2.png

Using device: xpu
----------------------------------------------------------------
        Layer (type)               Output Shape         Param #
================================================================
            Conv2d-1           [-1, 10, 28, 28]              90
       BatchNorm2d-2           [-1, 10, 28, 28]              20
              ReLU-3           [-1, 10, 28, 28]               0
           Dropout-4           [-1, 10, 28, 28]               0
            Conv2d-5           [-1, 14, 28, 28]           1,260
       BatchNorm2d-6           [-1, 14, 28, 28]              28
              ReLU-7           [-1, 14, 28, 28]               0
           Dropout-8           [-1, 14, 28, 28]               0
         MaxPool2d-9           [-1, 14, 14, 14]               0
           Conv2d-10           [-1, 16, 14, 14]           2,016
      BatchNorm2d-11           [-1, 16, 14, 14]              32
             ReLU-12           [-1, 16, 14, 14]               0
          Dropout-13           [-1, 16, 14, 14]               0
           Conv2d-14           [-1, 12, 14, 14]           1,728
      BatchNorm2d-15           [-1, 12, 14, 14]              24
             ReLU-16           [-1, 12, 14, 14]               0
          Dropout-17           [-1, 12, 14, 14]               0
        MaxPool2d-18             [-1, 12, 7, 7]               0
           Conv2d-19             [-1, 12, 7, 7]           1,296
      BatchNorm2d-20             [-1, 12, 7, 7]              24
             ReLU-21             [-1, 12, 7, 7]               0
          Dropout-22             [-1, 12, 7, 7]               0
           Conv2d-23             [-1, 10, 7, 7]           1,080
      BatchNorm2d-24             [-1, 10, 7, 7]              20
             ReLU-25             [-1, 10, 7, 7]               0
          Dropout-26             [-1, 10, 7, 7]               0
           Conv2d-27             [-1, 10, 7, 7]             100
        AvgPool2d-28             [-1, 10, 1, 1]               0
================================================================
Total params: 7,718
Trainable params: 7,718
Non-trainable params: 0
----------------------------------------------------------------
Input size (MB): 0.00
Forward/backward pass size (MB): 0.80
Params size (MB): 0.03
Estimated Total Size (MB): 0.84
----------------------------------------------------------------
Saved model analysis to analytics\pre_training\model_analysis_v2.json
…
