…
Intel XPU Available? True
CUDA Available? False

--- Data Statistics (First Batch) ---
Images tensor shape: torch.Size([128, 1, 28, 28])
Labels tensor shape: torch.Size([128])
 - min: -0.4242
 - max: 2.8215
 - mean: 0.0058
 - std: 1.0068
 - var: 1.0136
-------------------------------------

Saved a sample of the training data to analytics\pre_training\data_sample.png

Using device: xpu
----------------------------------------------------------------
        Layer (type)               Output Shape         Param #
================================================================
            Conv2d-1           [-1, 16, 26, 26]             144
              ReLU-2           [-1, 16, 26, 26]               0
            Conv2d-3           [-1, 32, 26, 26]           4,608
              ReLU-4           [-1, 32, 26, 26]               0
            Conv2d-5           [-1, 24, 26, 26]           6,912
              ReLU-6           [-1, 24, 26, 26]               0
         MaxPool2d-7           [-1, 24, 13, 13]               0
            Conv2d-8           [-1, 16, 11, 11]           3,456
              ReLU-9           [-1, 16, 11, 11]               0
           Conv2d-10             [-1, 14, 9, 9]           2,016
             ReLU-11             [-1, 14, 9, 9]               0
           Conv2d-12             [-1, 12, 7, 7]           1,512
             ReLU-13             [-1, 12, 7, 7]               0
           Conv2d-14             [-1, 10, 5, 5]           1,080
             ReLU-15             [-1, 10, 5, 5]               0
           Conv2d-16             [-1, 10, 3, 3]             900
             ReLU-17             [-1, 10, 3, 3]               0
           Linear-18                   [-1, 10]             910
================================================================
Total params: 21,538
Trainable params: 21,538
Non-trainable params: 0
----------------------------------------------------------------
Input size (MB): 0.00
Forward/backward pass size (MB): 0.83
Params size (MB): 0.08
Estimated Total Size (MB): 0.92
----------------------------------------------------------------
Saved model analysis to analytics\pre_training\model_analysis.json
…
