…
Intel XPU Available? True
CUDA Available? False

--- Data Statistics (First Batch) ---
Images tensor shape: torch.Size([128, 1, 28, 28])
Labels tensor shape: torch.Size([128])
 - min: -0.4242
 - max: 2.8215
 - mean: 0.0058
 - std: 1.0068
 - var: 1.0136
-------------------------------------

Saved a sample of the training data to analytics\pre_training\data_sample_v1.png

Using device: xpu
----------------------------------------------------------------
        Layer (type)               Output Shape         Param #
================================================================
            Conv2d-1           [-1, 16, 26, 26]             144
       BatchNorm2d-2           [-1, 16, 26, 26]              32
              ReLU-3           [-1, 16, 26, 26]               0
            Conv2d-4           [-1, 12, 26, 26]           1,728
       BatchNorm2d-5           [-1, 12, 26, 26]              24
              ReLU-6           [-1, 12, 26, 26]               0
           Dropout-7           [-1, 12, 26, 26]               0
            Conv2d-8           [-1, 12, 26, 26]           1,296
       BatchNorm2d-9           [-1, 12, 26, 26]              24
             ReLU-10           [-1, 12, 26, 26]               0
          Dropout-11           [-1, 12, 26, 26]               0
        MaxPool2d-12           [-1, 12, 13, 13]               0
           Conv2d-13           [-1, 10, 11, 11]           1,080
      BatchNorm2d-14           [-1, 10, 11, 11]              20
             ReLU-15           [-1, 10, 11, 11]               0
           Conv2d-16             [-1, 10, 9, 9]             900
      BatchNorm2d-17             [-1, 10, 9, 9]              20
             ReLU-18             [-1, 10, 9, 9]               0
          Dropout-19             [-1, 10, 9, 9]               0
           Conv2d-20             [-1, 10, 7, 7]             900
      BatchNorm2d-21             [-1, 10, 7, 7]              20
             ReLU-22             [-1, 10, 7, 7]               0
          Dropout-23             [-1, 10, 7, 7]               0
           Conv2d-24             [-1, 10, 7, 7]             100
      BatchNorm2d-25             [-1, 10, 7, 7]              20
             ReLU-26             [-1, 10, 7, 7]               0
        AvgPool2d-27             [-1, 10, 1, 1]               0
================================================================
Total params: 6,308
Trainable params: 6,308
Non-trainable params: 0
----------------------------------------------------------------
Input size (MB): 0.00
Forward/backward pass size (MB): 0.84
Params size (MB): 0.02
Estimated Total Size (MB): 0.86
----------------------------------------------------------------
Saved model analysis to analytics\pre_training\model_analysis_v1.json
…
